latest.pth (torch, 554409 bytes, 18 tensors)

lin.weight f4 [64, 26]
0	0x3dda278a	0.10652073
1	0x3e36d0e3	0.17853121
2	0x3e182850	0.14859128
3	0xbd314310	-0.043276846
4	0x3e299f01	0.16564561
5	0x3da35a1b	0.07976171
6	0xbda17b81	-0.078848846
7	0x3e2d4339	0.16920175
8	0xbdf39aae	-0.11894737
9	0x3d150fee	0.036392145
10	0x3d9da6de	0.07697843
11	0xbe30f95b	-0.17282622
12	0x3e041b9a	0.12901154
13	0x3e564c6e	0.20927593
14	0x3e3853ee	0.18000767
15	0xbce4b86d	-0.027919972
16	0x3e126cec	0.14299363
17	0xbda4d048	-0.08047539
18	0xbbeebf0e	-0.007285959
19	0x3d8b5d2d	0.06804881
20	0x3e341a31	0.17588116
21	0x3de71ef1	0.112851985
22	0x3e006e50	0.12542081
23	0x3d0e3b72	0.03472466
24	0x3e148749	0.14504732
25	0xbde3b5f3	-0.111186884
26	0x3e149d60	0.14513159
27	0x3df7ff2b	0.12109216
28	0x3e0d576a	0.13802877
29	0xbde32d8d	-0.110926725
30	0xbda50cc3	-0.08059075
31	0xbe451ffd	-0.19250484
32	0xbe28aaef	-0.16471456
33	0xbd820cbb	-0.063500844
34	0x3cfffebf	0.031249402
35	0xbdd49ae0	-0.103811026
36	0xbdb7ed54	-0.089808136
37	0xbe488e3f	-0.19585513
38	0x3e09c1af	0.1345279
39	0x3d98126e	0.0742539
40	0xbd3458a9	-0.044029865
41	0xbd5b2d82	-0.053510197
42	0xbe00b40d	-0.12568684
43	0x3e2e795a	0.1703848
44	0xbdc11e28	-0.0942958
45	0x3d8872a1	0.06662489
46	0xbdb949a5	-0.0904725
47	0xbdc3e4ae	-0.095651016
48	0xbe3cc99d	-0.18436284
49	0x3e23ebd8	0.16007936
50	0xbc17ae7d	-0.00925791
51	0xbdc408d3	-0.095719956
52	0x3d08dcf8	0.033413857
53	0xbe1cc05e	-0.15307757
54	0x3e6ac8ac	0.22928113
55	0x3dbb978b	0.09159764
56	0xbd481ee9	-0.048857603
57	0x3dbc66f6	0.09199326
58	0xbe1d12a1	-0.15339138
59	0x3d38e519	0.04514036
60	0x3da79241	0.081821926
61	0x3d686f4d	0.05674677
62	0x3d866524	0.0656226
63	0xbdd9d292	-0.10635866
64	0xbe43b54c	-0.19112128
65	0x3e275c3e	0.16343781
66	0xbdf9a151	-0.12188972
67	0xbe3cb593	-0.1842864
68	0xbdfa78f8	-0.12230104
69	0xbe1d5ac8	-0.15366662
70	0x3dfb9373	0.12283983
71	0x3df28205	0.118412055
72	0xbe116d8a	-0.14201942
73	0x3debb858	0.1150977
74	0x3e49da6d	0.19712229
75	0x3d441861	0.047874812
76	0x3d2970fa	0.04136751
77	0xbe2bc1bf	-0.16773127
78	0xbe40a85b	-0.18814223
79	0x3dc7b5ab	0.09751447
80	0xbcb08af9	-0.021550642
81	0xbe389e90	-0.18029237
82	0xbe04babf	-0.12961863
83	0xbdeb26b4	-0.114819914
84	0xbc7a1796	-0.015264412
85	0xbda99148	-0.08279663
86	0x3e1ced60	0.15324926
87	0xbe404950	-0.18777966
88	0x3d1d7dd5	0.03845008
89	0x3e24a013	0.16076688
90	0x3df68f86	0.12039094
91	0x3cbb5ffa	0.022872914
92	0xbaf9d902	-0.0019061866
93	0xbe0a244c	-0.13490409
94	0xbd4a4b71	-0.049388353
95	0x3e2d1d42	0.16905692
96	0x3d5afde0	0.05346477
97	0xbca33733	-0.019923782
98	0xbe03e8bf	-0.12881754
99	0x3d472e97	0.048628416
100	0xbd85f838	-0.065414846
101	0xbe1a137f	-0.150465
102	0xbe48de48	-0.19616044
103	0x3df614b0	0.120156646
104	0x3e2021ac	0.15637845
105	0x3cddedbf	0.027090905
106	0xbcdc91fe	-0.026925083
107	0xbcbef7a0	-0.023311436
108	0x3e3be7b1	0.18350102
109	0xbb956baf	-0.004559956
110	0xbe12821e	-0.14307448
111	0xbd9909ed	-0.07472596
112	0x3e16705b	0.14691298
113	0x3e32b4a6	0.17451724
114	0x3e4930b6	0.19647488
115	0x3d4ba733	0.04972
116	0xbb5da216	-0.0033818535
117	0xbd4cc2dd	-0.049990524
118	0xbdf496fb	-0.1194286
119	0x3e038721	0.12844516
120	0xbcde1057	-0.0271074
121	0x3db73b0f	0.089468114
122	0xbc495b4b	-0.012289832
123	0xbd83bff6	-0.06433098
124	0xb9ddf6d5	-0.0004233631
125	0xbe1c883c	-0.15286344
126	0x3e2261ec	0.15857667
127	0x3e458577	0.19289194
128	0xbe312891	-0.17300631
129	0xbe0df609	-0.13863386
130	0xbe13c026	-0.14428768
131	0xbe106bea	-0.14103666
132	0x3da0e1c7	0.078555636
133	0xbd86db40	-0.06584787
134	0xbe405a58	-0.18784463
135	0xba4db17f	-0.00078465784
136	0x3cd6bdb4	0.026213504
137	0xbd831caf	-0.06401955
138	0xbe429fd2	-0.19006279
139	0xbe2c2603	-0.16811375
140	0xbc90b95e	-0.017666515
141	0x3d2d5dc1	0.04232574
142	0xbbd86744	-0.006604107
143	0x3db78ebc	0.08962771
144	0xbd969d0d	-0.07354174
145	0xbd7db328	-0.061938435
146	0xbde194f3	-0.11014738
147	0x3e32f568	0.17476428
148	0xbc5b5a5f	-0.013388245
149	0x3d87dbd6	0.06633727
150	0x3d9ffb70	0.0781163
151	0x3e852b45	0.26009575
152	0xbe1c8750	-0.15285993
153	0x3cc39fe9	0.023879962
154	0x3e71329e	0.23554465
155	0xbe04ef3f	-0.1298189
156	0x3dae1d29	0.085016556
157	0xbdf8b3be	-0.12143658
158	0xbc8b0980	-0.016972303
159	0xbe3f1311	-0.18659617
160	0xbe27f7ce	-0.16403124
161	0xbdfe8d4f	-0.12429296
162	0x3e266bda	0.1625208
163	0xbe305bff	-0.17222594
164	0xbe5ed623	-0.21761374
165	0xbe4bdff1	-0.19909646
166	0xbdbd0e6b	-0.09231266
167	0x3d86bd0d	0.06579027
168	0xbd6285ad	-0.055303264
169	0xbd1d0bbd	-0.038341273
170	0xbdb9a97c	-0.0906553
171	0xbe2e18ed	-0.17001696
172	0x3d649b4f	0.055812176
173	0xbd3ff0a0	-0.046860337
174	0xbda74285	-0.081669845
175	0xbe0db862	-0.13839868
176	0x3e331b76	0.17490944
177	0x3e088f85	0.13335998
178	0xbe18e35f	-0.14930485
179	0x3dcab09e	0.09896968
180	0xbd950f37	-0.072782926
181	0x3e047fee	0.12939426
182	0x3d1e56dd	0.038657058
183	0x3cb02236	0.021500688
184	0xbd169dff	-0.03677177
185	0x3e2ed00b	0.1707155
186	0xbc834486	-0.016023885
187	0xbde1703e	-0.110077366
188	0xbe0b4165	-0.13599165
189	0x3e116f34	0.14202577
190	0xbdcad3d7	-0.099036865
191	0xbc08b3ea	-0.008343676
192	0x3e011a97	0.126078
193	0x3c456707	0.012048489
194	0x3da9fa00	0.08299637
195	0xbdfb63fe	-0.12274931
196	0x3cdafa82	0.02673078
197	0xbd741dc8	-0.059598714
198	0xbd480bc4	-0.048839346
199	0xbc9fc956	-0.019505184
200	0x3da5b8ad	0.08091865
201	0x3d412469	0.047153864
202	0xbdd1a8d6	-0.10237281
203	0xbb7145e8	-0.003681535
204	0xbdf4c67f	-0.119519226
205	0x3e48f111	0.1962321
206	0xbe57c337	-0.21070562
207	0xbdd35936	-0.1031975
208	0x3de3d57c	0.11124703
209	0x3e86e186	0.26343936
210	0x3e702815	0.2345279
211	0xbdd3d3ed	-0.10343156
212	0xbd922234	-0.0713543
213	0x3dc70d6a	0.097193554
214	0x3dd77428	0.10520202
215	0x3e1d0fad	0.15338011
216	0x3dee20b3	0.11627331
217	0xbe145393	-0.14485006
218	0xbd3013cf	-0.04298764
219	0x3cee7f3d	0.029113406
220	0xbd3a7689	-0.0455232
221	0x3d836c28	0.064171135
222	0xbe1f0624	-0.15529686
223	0x3d8b3669	0.06797487
224	0x3d5d90b2	0.05409307
225	0x3d1f5b14	0.03890522
226	0x3d01dc70	0.031704366
227	0xbe3c651a	-0.18397942
228	0xbbabc431	-0.0052418937
229	0x3d112cfe	0.0354433
230	0x3e1fc7fc	0.15603632
231	0xbe324dac	-0.17412442
232	0xba878c51	-0.00103415
233	0xbdf5ec08	-0.1200791
234	0x3aaa712d	0.00130037
235	0x3d8aed8d	0.067835905
236	0x3d99f2c2	0.075170055
237	0x3d33e162	0.043916114
238	0x3d25304e	0.04032927
239	0x3e1bcb39	0.15214242
240	0x3dda8f58	0.10671872
241	0x3e166b0a	0.1468927
242	0x3e176838	0.1478585
243	0xbd30065c	-0.042974815
244	0x3e3ba221	0.18323566
245	0x3d0cb062	0.0343479
246	0xbd667d70	-0.05627197
247	0x3e1048cf	0.14090274
248	0xbdf8f963	-0.12156942
249	0x3c55195a	0.013006533
250	0x3d846cb3	0.06466045
251	0x3d6420ab	0.055695217
252	0x3d8bbcd4	0.068231255
253	0x3b6feef4	0.0036610933
254	0x3e1d8fdd	0.1538691
255	0x3e1af5de	0.15132853

lin.bias f4 [64]
0	0x3e1719a6	0.14755878
1	0xbdcb22aa	-0.09918721
2	0x3d620c9b	0.055187803
3	0xbccc08ab	-0.024906477
4	0x3c228a05	0.009920602
5	0x3c822d02	0.015890602
6	0xbddbdfe5	-0.10736064
7	0xbc4b862a	-0.012422124
8	0x3dd1b6c9	0.102399416
9	0x3e0964d6	0.13417372
10	0xbce60a3a	-0.028081048
11	0xbd7c216c	-0.06155531
12	0xbce26a20	-0.027638495
13	0x3c296791	0.010339634
14	0xba45cbb1	-0.0007545306
15	0xbc891e69	-0.016738134
16	0x3dcadf3c	0.0990586
17	0xbae2ffba	-0.0017318644
18	0xbcc7752d	-0.024347866
19	0x3da3a352	0.07990135
20	0x3de6c647	0.11268287
21	0x3d0f626f	0.035005983
22	0xbbbda730	-0.0057877526
23	0x3dc6c430	0.097053885
24	0x3c6f1cd1	0.014594273
25	0x3db72925	0.089433946
26	0xbe01177d	-0.12606616
27	0xbd68f265	-0.05687179
28	0xbc53f37a	-0.012936467
29	0x3dadcb30	0.084860206
30	0x3d8e412c	0.06946024
31	0xbd2d93b6	-0.042377196
32	0xbce4442a	-0.027864534
33	0x3bd6d746	0.0065564243
34	0xbd830d0c	-0.06398973
35	0x3dd0b657	0.101910286
36	0x3d9b43d5	0.07581297
37	0x3dcfc9f3	0.10145941
38	0x3d540d53	0.05177052
39	0xbdb8dc31	-0.09026373
40	0x3d57d520	0.052693486
41	0x3db831ad	0.0899385
42	0x3dfc0d97	0.123072796
43	0xbd651d10	-0.05593592
44	0x3d3f6e63	0.046736132
45	0xbb3a3ba1	-0.002841689
46	0x3bb6acb1	0.0055747856
47	0xbda309f6	-0.07960884
48	0xbd3a3945	-0.045464773
49	0x3ce4c73e	0.027927037
50	0x3cb4abe2	0.022054616
51	0xbc2d2b03	-0.010569337
52	0xbd73d8af	-0.059532817
53	0xbd64be24	-0.055845395
54	0xbdfa96cd	-0.12235794
55	0xbc48a6c3	-0.01224679
56	0xbd9d9371	-0.07694138
57	0xbd9165bb	-0.07099482
58	0xbddfe08a	-0.10931499
59	0x3d8698a8	0.065720856
60	0xbdd8118f	-0.10550224
61	0xbdc9db68	-0.098563015
62	0xbd68e726	-0.056861065
63	0xbc7389f1	-0.014864431

conv1.att_src f4 [1, 3, 128]
0	0x3e3b81cc	0.18311232
1	0x3d15dce6	0.03658762
2	0x3b586b8e	0.0033023092
3	0x3e09e156	0.13464865
4	0x3e4f3dd9	0.20238437
5	0x3de3b1ae	0.11117874
6	0xbd9c7b72	-0.07640733
7	0xbdc24c1a	-0.094871715
8	0x3e50a1ca	0.20374218
9	0x3e39ff00	0.18163681
10	0xbdb98410	-0.09058392
11	0x3e035c52	0.12828186
12	0x3da6c33a	0.08142705
13	0xbdbbc79b	-0.09168931
14	0x3c5dd485	0.013539438
15	0xbd290c65	-0.041271586
16	0x3d8768c3	0.066117786
17	0x3cf786eb	0.030215701
18	0x3db5d659	0.08878774
19	0xbcbea818	-0.023273513
20	0xbe546998	-0.20743406
21	0xbd9ca0ce	-0.076478586
22	0x3cb2c849	0.021824019
23	0x3d75b628	0.05998817
24	0x3d8fc007	0.07019048
25	0xbe30a1fc	-0.17249292
26	0xbdb1e484	-0.08686164
27	0x3d9f2bb8	0.077720106
28	0xbe0cd9ce	-0.13754961
29	0xbd121324	-0.035662785
30	0x3dc47c25	0.09593991
31	0x3e19ce33	0.15020065
32	0xbe00f550	-0.1259358
33	0xbe246227	-0.16053067
34	0x3de5d0a1	0.112214334
35	0xbd03985d	-0.032127727
36	0x3e32c0cf	0.17456363
37	0xbde80c0f	-0.11330425
38	0x3cf0253d	0.029314632
39	0xbe39dca1	-0.1815057
40	0xbe356405	-0.17713936
41	0x3e4c7805	0.19967659
42	0xbdef0e06	-0.11672597
43	0xbe35db32	-0.17759398
44	0xbdf66bcf	-0.120322816
45	0xbe6dfdfc	-0.23241419
46	0xbdf2816a	-0.1184109
47	0xbe1088d0	-0.1411469
48	0x3e3b37b7	0.18282972
49	0x3e2ceba1	0.1688676
50	0xbe58c2b0	-0.21168017
51	0x3db3d971	0.08781708
52	0xbe19657d	-0.14980121
53	0x3d99a7a1	0.07502676
54	0x3b8e7636	0.004347588
55	0x3e3c8012	0.1840823
56	0xbdc1eb80	-0.09468746
57	0xbdbc5feb	-0.091979824
58	0x3e336fc5	0.17523105
59	0xbe3cdda9	-0.18443932
60	0x3d84d6ff	0.0648632
61	0xbdd4fb45	-0.10399488
62	0xbe2188e0	-0.1577487
63	0xbc1182c3	-0.008881274
64	0x3dcf02dd	0.10107968
65	0x3cd200a4	0.025635071
66	0x3e52fcd5	0.2060426
67	0x3e4bb07a	0.19891539
68	0xbe4c28a5	-0.1993738
69	0xbe082971	-0.13297059
70	0xbe32682e	-0.17422554
71	0xbd2f0fb0	-0.04273957
72	0x3d0a337e	0.033740513
73	0x3c9c5585	0.019083748
74	0xbdd37aca	-0.103261545
75	0x3e112862	0.14175561
76	0xbde32584	-0.1109114
77	0xbd151866	-0.03640022
78	0xbdeb4487	-0.1148768
79	0xbcd4f684	-0.025996454
80	0x3e10f091	0.14154269
81	0xbe1276d8	-0.14303148
82	0xbde10300	-0.109869
83	0xbbb739f9	-0.0055916277
84	0x3dbed896	0.09318654
85	0x3da0ec94	0.07857624
86	0x3e325a75	0.17417319
87	0x3a1f0e99	0.0006067544
88	0x3d1fdb2e	0.039027385
89	0xbe3747c6	-0.17898473
90	0x3d47d9a0	0.048791528
91	0xbd428027	-0.047485497
92	0xbdf7396c	-0.12071499
93	0xbe587227	-0.21137296
94	0x3e4d3420	0.20039415
95	0x3dd1560d	0.10221491
96	0xbe485bbf	-0.19566248
97	0x3d8e1066	0.069367215
98	0x3e4de9c6	0.20108709
99	0x3c82433c	0.0159012
100	0x3db4b656	0.0882384
101	0xbe3da3c9	-0.1851951
102	0xbe483f8c	-0.19555491
103	0xbde9e983	-0.11421492
104	0xbd6ac6ee	-0.05731862
105	0x3d0c602c	0.034271404
106	0x3e002e43	0.12517647
107	0x3e11117b	0.14166825
108	0xbd487777	-0.048942056
109	0xbe178575	-0.14797004
110	0xbe5b2e26	-0.21404323
111	0xbc4e4e9a	-0.012591982
112	0xbd89985b	-0.067185126
113	0x3de93974	0.113879114
114	0x3e2545b8	0.16139877
115	0xbdf5b8a3	-0.11998107
116	0xbd7f5e3f	-0.06234574
117	0xbe03e0d5	-0.12878735
118	0x3d26c4ec	0.040715143
119	0x3db51fd0	0.088439584
120	0xbd1ea322	-0.038729794
121	0x3cdb12e8	0.026742414
122	0x3c25cc64	0.010119531
123	0xbe065d49	-0.13121523
124	0xbe377043	-0.17913918
125	0xbb4da155	-0.003137668
126	0xbe4bd1f4	-0.1990431
127	0xbe1c639b	-0.15272371
128	0xbd03c54f	-0.03217059
129	0x3dff55bf	0.12467527
130	0xbdae9ec3	-0.08526375
131	0x3e1c6b88	0.15275395
132	0x3e10da01	0.14145662
133	0x3d25334a	0.040332116
134	0x3e065f48	0.13122284
135	0xbe741a09	-0.23838057
136	0xbd29c3f5	-0.041446645
137	0xbdc1a364	-0.094549924
138	0xbe18113b	-0.14850323
139	0xbdccc6e2	-0.099988714
140	0xbe14ec74	-0.14543325
141	0xbe320c35	-0.17387469
142	0x3e1d3cbc	0.153552
143	0xbd5c7d61	-0.05383051
144	0x3e0417b1	0.12899663
145	0x3ce6defe	0.028182503
146	0xbd6af1f3	-0.057359647
147	0xbe36b99e	-0.17844245
148	0x3e5703b3	0.20997505
149	0x3da5e7a5	0.08100823
150	0x3e2497f7	0.16073595
151	0xbe00b351	-0.12568404
152	0xbe12756c	-0.14302605
153	0xbae973b8	-0.0017810976
154	0xbd99b852	-0.075058594
155	0x3db0ec9f	0.08638882
156	0x3db287c6	0.08717303
157	0x3df23f33	0.118284605
158	0xbd79d118	-0.060990423
159	0x3e194c7b	0.14970581
160	0xbceb5786	-0.028728258
161	0x3d5a4a54	0.05329354
162	0x3e241921	0.16025211
163	0x3db98e05	0.09060291
164	0x3d7b831a	0.061404325
165	0xbe46a0d2	-0.19397286
166	0x3dc9be88	0.09850794
167	0xbd7cdc06	-0.06173327
168	0x3e4b40d4	0.19848949
169	0x3d703440	0.05864358
170	0x3e18822f	0.14893411
171	0x3e3dd028	0.18536437
172	0x3e4a335b	0.19746153
173	0x3ddf094b	0.10890444
174	0x3dace6aa	0.08442433
175	0xbdb4f579	-0.08835883
176	0xbe3dd057	-0.18536507
177	0x3e261836	0.16220173
178	0x3e183a82	0.14866069
179	0xbca2d1fd	-0.01987552
180	0x3e2252b1	0.15851857
181	0x3da1f727	0.07908469
182	0x3e42e923	0.19034247
183	0xbd0ccff4	-0.034378007
184	0xbd94bea8	-0.07262927
185	0x3e3f0512	0.18654278
186	0xbccbe54d	-0.024889613
187	0xbe442b61	-0.19157173
188	0xbe4220a2	-0.18957761
189	0x3dbff6b3	0.09373226
190	0x3d6f2d97	0.058393087
191	0xbdae0717	-0.08497446
192	0x3cb9d6fc	0.02268552
193	0xbc58bb70	-0.013228282
194	0xbdf0296a	-0.11726649
195	0xbe5b1716	-0.21395525
196	0x3d975491	0.07389177
197	0xbdf41c06	-0.119194075
198	0xbdbc0c10	-0.09181988
199	0x3e4ee786	0.20205507
200	0xbd56335d	-0.052295078
201	0x3e19b4e7	0.15010415
202	0xbdaaa4ca	-0.08332212
203	0xbd105a46	-0.03524234
204	0x3dd6070e	0.10450564
205	0x3e41e22a	0.18933931
206	0x3e11167c	0.14168733
207	0xbe52f5b8	-0.20601547
208	0x3e3e1707	0.18563472
209	0x3cce30d4	0.025169767
210	0x3e0b8556	0.13625082
211	0x3e492fea	0.19647184
212	0x3db6a87b	0.08918854
213	0xbc54c7be	-0.012987075
214	0x3e19a3d9	0.15003909
215	0x3dfc9dbe	0.123347744
216	0xbcd1e0ac	-0.025619827
217	0xbe3143f1	-0.17311074
218	0xbc62ee35	-0.013850738
219	0x3e308f31	0.17242123
220	0x3e2e05e1	0.1699443
221	0xbd363ce6	-0.04449167
222	0x3e2e21c2	0.17005065
223	0xbe10f270	-0.14154983
224	0xbe3f8093	-0.18701391
225	0xbd5bb59f	-0.053640004
226	0xbd309a20	-0.043115735
227	0xbdbb8104	-0.09155467
228	0xbdbb0a76	-0.09132855
229	0xbe07149f	-0.1319146
230	0xbd8077fc	-0.06272885
231	0x3d46279e	0.048377626
232	0xbe0aec4a	-0.135667
233	0x3ca0b9ba	0.019619811
234	0xbe0aa133	-0.13538055
235	0x3e19522b	0.14972751
236	0xbd6105dd	-0.054937232
237	0xbc8f530d	-0.017495656
238	0xbe267333	-0.16254883
239	0x3d9963be	0.074897274
240	0xbc75dfa3	-0.015006932
241	0xbd08a4be	-0.033360235
242	0xbe062dbc	-0.13103384
243	0xbe299e8a	-0.16564384
244	0x3aff41d2	0.0019474572
245	0x3d97138e	0.07376777
246	0xbc42a9f1	-0.0118813375
247	0xbd4e9337	-0.050433364
248	0x3d82eecc	0.06393203
249	0xbe4f7235	-0.2025841
250	0x3e390b7e	0.1807079
251	0xbc511ec0	-0.012763679
252	0x3dee775a	0.11643858
253	0x3d811ee4	0.0630472
254	0xbe76e7fd	-0.24111934
255	0xbe095ed4	-0.1341508

conv1.att_dst f4 [1, 3, 128]
0	0x3e619a6d	0.22031565
1	0xbcea6440	-0.028612256
2	0xbdda3247	-0.10654121
3	0xbe2235b7	-0.15840803
4	0xbe166646	-0.14687452
5	0x3c73e035	0.014884998
6	0xbdc3bc80	-0.09557438
7	0x3d5ede85	0.05441143
8	0x3e3350f4	0.1751135
9	0x3e206ed4	0.15667278
10	0x3e3f6e94	0.18694526
11	0xbcecb4ca	-0.0288948
12	0x3e50ffb7	0.20410047
13	0x3c8da445	0.017290244
14	0xbde7fa87	-0.11327081
15	0xbc263247	-0.010143823
16	0x3db7437d	0.08948419
17	0x3ce2eab2	0.027699802
18	0xbe27c9cf	-0.16385578
19	0xbe27e048	-0.1639415
20	0xbe362c7a	-0.17790404
21	0xbe34a7f1	-0.1764219
22	0x3e437053	0.19085817
23	0x3e6600ce	0.22461244
24	0xbd18c083	-0.03729297
25	0x3d2c61e0	0.04208553
26	0x3e27753f	0.1635332
27	0xbd5b447e	-0.053532116
28	0xbe3d8da7	-0.18511067
29	0x3d708572	0.058721013
30	0xbc4d7fbf	-0.012542664
31	0x3e29ae0c	0.165703
32	0xbdc490cd	-0.09597931
33	0x3dd129fc	0.10213086
34	0xbdf688f3	-0.1203784
35	0xbdbe446a	-0.09290393
36	0x3e2200c5	0.15820606
37	0xbd9e17b9	-0.077193685
38	0xbdbca6d6	-0.09211509
39	0xbe148aea	-0.14506117
40	0x3e07c81b	0.13259928
41	0xbd4c891e	-0.049935453
42	0x3d6aa097	0.057282057
43	0x3e04d516	0.12971911
44	0xbdd6c1f2	-0.10486211
45	0x3e4e40db	0.20141928
46	0x3dda676a	0.10664256
47	0x3d6a5139	0.057206366
48	0xbd884e9d	-0.06655619
49	0xbe2dfcf7	-0.1699103
50	0xbe2d6107	-0.16931544
51	0xbdc148a8	-0.09437686
52	0xbe1019e2	-0.14072374
53	0xbdecce7c	-0.11562821
54	0x3e56091b	0.20901911
55	0x3dff7fc0	0.12475538
56	0x3e52f0d3	0.2059968
57	0x3df09247	0.1174665
58	0x3d16fe37	0.036863532
59	0x3e23ac48	0.15983689
60	0x3e3ea184	0.18616301
61	0xbd7500af	-0.059815105
62	0xbddf054d	-0.10889683
63	0x3e0d2801	0.13784792
64	0x3c31eb6f	0.010859354
65	0x3db829d9	0.08992357
66	0xbe2c54e0	-0.16829252
67	0x3df66ca7	0.120324425
68	0xbdba8f3c	-0.09109351
69	0xbe653f08	-0.22387326
70	0xbd56c8a3	-0.052437436
71	0xbe07a4f1	-0.13246514
72	0x3dc38acb	0.09547957
73	0x3c5e1f80	0.013557315
74	0x3e2faecd	0.17156525
75	0xbd4bdf2e	-0.049773388
76	0xbe0be3c2	-0.13661101
77	0x3e1f4fa7	0.15557729
78	0x3dfa17c7	0.122115664
79	0xbe319e2b	-0.17345493
80	0xbdae36f8	-0.08506578
81	0x3e0acb9d	0.13554235
82	0xbe4e5b21	-0.2015195
83	0xbdd3fc5b	-0.10350867
84	0xbe193b29	-0.14963974
85	0xbe23f106	-0.16009912
86	0xbde3c790	-0.11122048
87	0x3e213c49	0.15745653
88	0xbe42d48c	-0.19026393
89	0xbdcfc1d5	-0.101443924
90	0xbd067f3c	-0.032836184
91	0xbe4118b7	-0.18857084
92	0xbe3ff7ef	-0.18746923
93	0xbdff00cc	-0.12451324
94	0x3d190708	0.03736022
95	0x3d26f3c1	0.040759806
96	0xbe313ce3	-0.17308383
97	0xbd8359b5	-0.06413595
98	0xbe28e9f8	-0.16495502
99	0xbcbda634	-0.02315054
100	0x3e085131	0.13312222
101	0xbbc5a990	-0.0060321763
102	0x3e127808	0.14303601
103	0xbdbaff79	-0.09130759
104	0x3db3dda9	0.08782513
105	0x3d9c6eef	0.076383464
106	0x3df2ceea	0.11855872
107	0x3e0f6ed6	0.14007124
108	0xbe416b3a	-0.1888856
109	0xbd8eb765	-0.069685735
110	0xba4a9f79	-0.0007729452
111	0x3cf08a06	0.02936269
112	0x3ae67a18	0.0017583994
113	0xbe142a05	-0.14469154
114	0xbd8c2e23	-0.068447374
115	0x3e2836b0	0.16427112
116	0xbda46729	-0.08027489
117	0x3de7f3d2	0.11325802
118	0x3e11bf21	0.14233066
119	0x3db893bf	0.09012555
120	0xbdf23091	-0.118256696
121	0xbe075068	-0.13214266
122	0x3d9c7627	0.07639723
123	0xbe4facbc	-0.20280737
124	0x3d32b2ab	0.043627422
125	0x3e333221	0.17499591
126	0xbd582c31	-0.05277652
127	0xbda803c3	-0.082038425
128	0xbccc4f4e	-0.02494016
129	0x3db84ed6	0.08999412
130	0x3dceabc6	0.10091357
131	0xbc2b7f34	-0.010467339
132	0x3cf1ff25	0.029540608
133	0xbe153729	-0.14571823
134	0xbd094667	-0.033514407
135	0x3cbee23f	0.023301242
136	0xbd73e6dd	-0.05954634
137	0x3d8aa18b	0.06769093
138	0x3d6a4221	0.05719197
139	0xbd806586	-0.06269364
140	0x3e1118d5	0.14169629
141	0x3de205f5	0.110362925
142	0xbd11e778	-0.035621136
143	0x3d7de3c3	0.06198479
144	0x3e3ada11	0.18247248
145	0x3c669d06	0.014075523
146	0xbda40420	-0.08008599
147	0xbdc6dd66	-0.09710197
148	0x3deb863b	0.11500212
149	0xbe20d4f0	-0.15706229
150	0x3bfea007	0.0077705416
151	0xbe16f7dc	-0.14742988
152	0xbd66f305	-0.056384105
153	0xbdbec663	-0.09315183
154	0xbe01d26d	-0.12677927
155	0x3d8418db	0.06450053
156	0xbba9d89b	-0.005183292
157	0xbe1545dc	-0.1457743
158	0x3e3aa984	0.18228728
159	0xbdeea70b	-0.11652955
160	0xbbed2e5b	-0.007238192
161	0xbda42ed9	-0.08016748
162	0x3e322990	0.17398667
163	0x3e326445	0.17421062
164	0xbb27bbe2	-0.0025594165
165	0x3dd99367	0.10623818
166	0xbd9ac56a	-0.07557185
167	0x3db5653e	0.08857201
168	0xbe1082de	-0.14112422
169	0xbdba1d61	-0.09087635
170	0xbe1b3d63	-0.15160136
171	0xbdcf6ffb	-0.101287805
172	0xbe3ee687	-0.18642627
173	0x3ddfc9cc	0.109271616
174	0x3e166278	0.14686
175	0xbe1912ca	-0.14948574
176	0x3d8447c6	0.06459002
177	0xbdf5b6d5	-0.11997763
178	0x3dd123e6	0.10211925
179	0x3e2dc541	0.16969778
180	0x3d958472	0.073006526
181	0xbe57018d	-0.20996685
182	0xbe2aff44	-0.16698939
183	0xbd1b2494	-0.03787668
184	0xbd58091d	-0.052743066
185	0xbdad5e17	-0.08465212
186	0x3c3f1242	0.011662068
187	0xbdf4457e	-0.11927317
188	0xbda480b1	-0.080323584
189	0xbdcfd7a9	-0.10148556
190	0xbdd50c3e	-0.10402726
191	0xbda25c6a	-0.07927783
192	0x3d1c5a03	0.03817178
193	0xbe2b0ee6	-0.16704902
194	0x3ceaf64c	0.028681897
195	0x3c9f10da	0.019417215
196	0x3df61e58	0.12017506
197	0xbd500e68	-0.05079499
198	0xbd4ade87	-0.049528625
199	0xbe12c629	-0.14333405
200	0x3c71f98e	0.014768971
201	0x3d94af11	0.07259954
202	0x3c9f48c8	0.019443884
203	0x3e11b192	0.14227894
204	0x3cb3f37a	0.021966685
205	0x3e177f01	0.14794542
206	0xbe3fef11	-0.1874354
207	0x3e17ebd4	0.14836055
208	0x3d3ebc8d	0.046566535
209	0x3d8787e2	0.066177145
210	0x3c501eba	0.012702638
211	0x3e1f8497	0.15577923
212	0xbb2b7c1b	-0.0026166502
213	0xbe22520e	-0.15851614
214	0x3e0ea95a	0.1393179
215	0x3c24f85f	0.010068982
216	0xbc915bb5	-0.017743925
217	0xbd9358de	-0.071946844
218	0xbe20ac89	-0.15690817
219	0xbd0c5200	-0.03425789
220	0xbd29df70	-0.041472852
221	0xbda8df6c	-0.08245739
222	0x3cdaff00	0.026732922
223	0x3e28f456	0.16499457
224	0xbd8bd52e	-0.0682777
225	0xbe119897	-0.14218365
226	0xbe1139c7	-0.14182197
227	0x3de3a59a	0.1111557
228	0xbaf22133	-0.0018473029
229	0xbdc66d7f	-0.096888535
230	0xbd9d08a9	-0.076676674
231	0xba6478ff	-0.00087155396
232	0xbe298469	-0.16554417
233	0x3dc30c56	0.09523837
234	0xbcca0988	-0.024662748
235	0x3e3391f0	0.1753614
236	0x3e4a4ef4	0.1975668
237	0xbe46da32	-0.19419172
238	0xbd18fb30	-0.037348926
239	0x3ddf8261	0.1091354
240	0x3db9ff85	0.090819396
241	0xbd7c0e0e	-0.06153684
242	0xbe2363e8	-0.1595608
243	0x3dc2d637	0.095135145
244	0xbe3982dc	-0.18116325
245	0x3da89da4	0.082331926
246	0x3d18b839	0.037285063
247	0x3d4bd52b	0.04976384
248	0x3df32466	0.11872177
249	0x3e16fe93	0.1474555
250	0x3e0f5e9b	0.14000933
251	0xbe077941	-0.13229848
252	0x3de642ed	0.11243234
253	0xbc5b56e9	-0.01338742
254	0x3d9f71c2	0.077853695
255	0x3db07dd2	0.08617748

conv1.att_edge f4 [1, 3, 128]
0	0xb64ac0dc	-3.0212605e-06
1	0x382d43ba	4.130949e-05
2	0xb8703043	-5.7265406e-05
3	0xb9664204	-0.00021959102
4	0xb8a1f15b	-7.722034e-05
5	0x35689da1	8.6656115e-07
6	0xb456c37b	-2.0001418e-07
7	0xb9019396	-0.00012357379
8	0x3a939e2c	0.0011262349
9	0xa86b8995	-1.3074954e-14
10	0xb86c7df3	-5.6384084e-05
11	0x34b902a0	3.4460845e-07
12	0xb9190352	-0.00014592454
13	0xb873cb6a	-5.812516e-05
14	0x3a1c4d24	0.00059624226
15	0xbc3fd457	-0.011708341
16	0x39ea8f0a	0.0004473853
17	0xbc91601d	-0.017746026
18	0x3b132298	0.002245104
19	0x36078a9e	2.0197253e-06
20	0x3583351c	9.775717e-07
21	0xb7fb667e	-2.9969258e-05
22	0x39bc9805	0.00035971418
23	0xb82215dd	-3.864417e-05
24	0xbbb9fd6d	-0.0056759627
25	0xbba116a6	-0.00491603
26	0xbc2cce36	-0.010547211
27	0x3b860b7c	0.0040907245
28	0x3b5848f3	0.0033002465
29	0xb8e70922	-0.000110166395
30	0x3bf11d27	0.0073582116
31	0xbb0f37f8	-0.0021853428
32	0xba17419a	-0.0005769968
33	0x3b1e2a59	0.0024134128
34	0x3a7c7c9f	0.0009631607
35	0x3aa5bbbd	0.0012644451
36	0x38aab19e	8.1393155e-05
37	0x3a8e3608	0.0010849843
38	0xb8fa477a	-0.000119342425
39	0x39c38b03	0.0003729687
40	0x3953b30b	0.00020189227
41	0x3a540348	0.0008087647
42	0x33874376	6.2986985e-08
43	0xb106b34b	-1.9601483e-09
44	0x398531b6	0.00025404774
45	0x0a16f7e6	7.268862e-33
46	0xb7822655	-1.5515057e-05
47	0x3b11a4cb	0.0022223468
48	0x38a58c60	7.89396e-05
49	0xb025dd55	-6.034118e-10
50	0x3b970a55	0.004609386
51	0xb704b9a8	-7.91104e-06
52	0x3a4bbf90	0.00077723805
53	0xb825d0f7	-3.953368e-05
54	0xb4f17ac2	-4.4979066e-07
55	0x384ad038	4.835447e-05
56	0x3634bfb0	2.6933667e-06
57	0x36d7284b	6.41219e-06
58	0x38fdb963	0.00012098511
59	0xb82d79eb	-4.135996e-05
60	0x3b85118a	0.0040609287
61	0xbb1661a1	-0.0022946375
62	0xba6eb6a4	-0.0009106195
63	0x3906533e	0.00012810246
64	0xbc1f742e	-0.009732289
65	0xba860efd	-0.0010227856
66	0xb8ab2808	-8.161372e-05
67	0xbbb80952	-0.0056163454
68	0x34722724	2.2552246e-07
69	0x3b1da2f9	0.0024053438
70	0xbbcda10e	-0.0062753027
71	0xb57089ce	-8.96075e-07
72	0xb817640f	-3.6094392e-05
73	0xbbca71b8	-0.006178107
74	0x31a6b940	4.8522963e-09
75	0xb623e6d4	-2.4423252e-06
76	0xb7f5c4b1	-2.9297868e-05
77	0xb698a194	-4.548763e-06
78	0x392ec9b6	0.00016669076
79	0x3baecb2f	0.00533428
80	0x39386c17	0.00017587874
81	0x3a4cda8f	0.000781455
82	0xbb54654d	-0.0032409013
83	0xb4b3be71	-3.3479913e-07
84	0xb9a4d043	-0.00031435685
85	0x3b951168	0.004549194
86	0xbc2a0ee6	-0.010379529
87	0x3bb55493	0.0055337637
88	0x3a547511	0.00081046025
89	0xbb64b898	-0.0034900066
90	0xbc4f09b6	-0.012636593
91	0xb955f60e	-0.00020404925
92	0x385614dc	5.1041003e-05
93	0x373f8b5e	1.1416936e-05
94	0xb49131ac	-2.7044496e-07
95	0xbaf5110b	-0.0018697096
96	0x3a3602a3	0.0006943142
97	0xbb2ac63f	-0.0026058105
98	0xb4810d9b	-2.4038022e-07
99	0x3c397bd1	0.011321024
100	0xbbdefbe7	-0.0068049314
101	0xb9d14bdc	-0.00039920106
102	0x394c30a7	0.0001947308
103	0xb6a8fb87	-5.036072e-06
104	0x3530bc42	6.583906e-07
105	0xb00b22e9	-5.0617516e-10
106	0x39531617	0.00020130757
107	0xb806a8e8	-3.2105396e-05
108	0x389a2e18	7.351878e-05
109	0x38432408	4.652518e-05
110	0xbc873a77	-0.01650737
111	0xb6bec9e1	-5.685943e-06
112	0xb85cfbdc	-5.268665e-05
113	0x3b508a84	0.0031820843
114	0xb74f01bc	-1.2338565e-05
115	0xb794b60c	-1.7727747e-05
116	0x3b97a1ef	0.0046274583
117	0x3a34210a	0.0006871378
118	0xbc327b83	-0.010893705
119	0xb8d05bdd	-9.935324e-05
120	0x371a6fcd	9.205146e-06
121	0x37f1c3a7	2.8820547e-05
122	0xbbd1617f	-0.0063897963
123	0x348bf9ae	2.6072433e-07
124	0x3891af1c	6.9467555e-05
125	0x331d1757	3.657564e-08
126	0x37094bae	8.183457e-06
127	0xb6ae0752	-5.1864563e-06
128	0xb39c947a	-7.291324e-08
129	0x3a711304	0.0009196254
130	0x38b17397	8.461548e-05
131	0xb938bae2	-0.00017617227
132	0x26bfab56	1.3299728e-15
133	0x3943131b	0.00018603767
134	0x368d01ba	4.2023285e-06
135	0xb9bed313	-0.00036396887
136	0x32651522	1.3334359e-08
137	0x3625d475	2.4710582e-06
138	0xb7ebdb54	-2.8116316e-05
139	0x3993917f	0.00028146428
140	0xb8674b76	-5.514497e-05
141	0xb76b6ca8	-1.403239e-05
142	0x36a3f8fb	4.8867637e-06
143	0xb77b5f64	-1.4982976e-05
144	0x39c3eb2e	0.0003736852
145	0x391aaa7b	0.00014750093
146	0xb960610b	-0.00021398456
147	0x3aa12d3b	0.0012296805
148	0xbaaeba20	-0.0013330616
149	0xb9dbb267	-0.00041903855
150	0x3a77088c	0.0009423576
151	0x3658e3c9	3.2319097e-06
152	0xb8994ba8	-7.3097006e-05
153	0x37a32d93	1.9452336e-05
154	0xb474ca60	-2.2797894e-07
155	0xb7938713	-1.7586664e-05
156	0x396f33f0	0.00022812164
157	0x3605757b	1.9886927e-06
158	0xb3bb1aa4	-8.712712e-08
159	0x2f50771a	1.8959803e-10
160	0xb8ad3837	-8.259754e-05
161	0xb35e4cae	-5.1758143e-08
162	0xb806739a	-3.2055752e-05
163	0x38f79ced	0.000118071075
164	0x371780b8	9.030271e-06
165	0x367e8e36	3.7931727e-06
166	0xb740bedc	-1.148853e-05
167	0xb860508d	-5.348078e-05
168	0x389494e8	7.084926e-05
169	0xb855765f	-5.08934e-05
170	0x35e8d014	1.7345906e-06
171	0xb73e2d2d	-1.1335401e-05
172	0xb1641b5c	-3.3193919e-09
173	0xb9461ba4	-0.00018893048
174	0xb3bfc146	-8.929287e-08
175	0xb6a5bc68	-4.9393166e-06
176	0x348c08de	2.6083484e-07
177	0xb9e3ea5b	-0.00043471422
178	0xb8ed4b92	-0.00011315117
179	0x0720003d	1.2037132e-34
180	0x36870263	4.0235914e-06
181	0x36436ea0	2.9121657e-06
182	0x387f5733	6.087795e-05
183	0xb48a09a0	-2.5711506e-07
184	0xa4af397d	-7.599154e-17
185	0x350f74a5	5.344139e-07
186	0x3912daa8	0.00014005101
187	0x3999719b	0.00029267077
188	0xb3cc0e0d	-9.502046e-08
189	0x30148f26	5.404551e-10
190	0x3716dcbe	8.992092e-06
191	0xba60c321	-0.00085739983
192	0x343840ef	1.7159958e-07
193	0x3a072d0e	0.0005156555
194	0x3a2e5d07	0.00066514354
195	0xbb26ceb0	-0.0025452785
196	0xb139ce2d	-2.703824e-09
197	0xb789c69c	-1.6424157e-05
198	0x36f8dfc0	7.417024e-06
199	0x3834e924	4.3132473e-05
200	0x2c9a9b4e	4.3941855e-12
201	0x3a12f523	0.0005605986
202	0x3a3ea944	0.00072731473
203	0xbaba0f40	-0.0014195219
204	0x32b318bf	2.0849596e-08
205	0xb5f0a481	-1.792927e-06
206	0x39553b6e	0.00020335402
207	0x369a8f47	4.6062373e-06
208	0x38e4ad12	0.00010904124
209	0xb4524159	-1.9581547e-07
210	0xaa392b81	-1.6446394e-13
211	0x31c5d5c7	5.7577583e-09
212	0x33dd5e5b	1.03082776e-07
213	0xb0068b63	-4.8946996e-10
214	0x356aee35	8.751843e-07
215	0x34eef5cb	4.4509792e-07
216	0x358a334d	1.0296732e-06
217	0xa723ccab	-2.2731745e-15
218	0x380f0af4	3.4104058e-05
219	0x3620a102	2.3935577e-06
220	0x36894479	4.0908894e-06
221	0x3287d6ae	1.5813693e-08
222	0xb5cb97b6	-1.5168832e-06
223	0xb8608c1f	-5.353626e-05
224	0x373a5859	1.1107034e-05
225	0x3ace5c6d	0.0015744098
226	0xb7fc5c32	-3.0083673e-05
227	0x375741be	1.2830305e-05
228	0x36913c4e	4.328357e-06
229	0xb73ce598	-1.125913e-05
230	0x378079aa	1.5315443e-05
231	0xb6f3b7e9	-7.2633743e-06
232	0x38ccc7fb	9.764727e-05
233	0x39a9f397	0.0003241568
234	0xb8931938	-7.0142036e-05
235	0xba1d8729	-0.0006009215
236	0x3514b34b	5.53952e-07
237	0x36c28f6f	5.7983484e-06
238	0xb87ad231	-5.98004e-05
239	0xb4548cc9	-1.9795256e-07
240	0x372701e7	9.954419e-06
241	0x37844dec	1.5771911e-05
242	0x35520e1f	7.8251645e-07
243	0x25f1d7f8	4.1953182e-16
244	0x38276ff3	3.9920164e-05
245	0xa189ba48	-9.332789e-19
246	0xb5246011	-6.1234556e-07
247	0x389b06cf	7.392244e-05
248	0x32730880	1.4146394e-08
249	0x2f655f36	2.0861254e-10
250	0x37886fc5	1.626451e-05
251	0x39412909	0.00018421201
252	0x360d1f1a	2.102874e-06
253	0xba5c3cca	-0.0008401392
254	0xb6a21e6b	-4.8315173e-06
255	0x35383499	6.862188e-07

conv1.bias f4 [384]
0	0x3c459261	0.012058825
1	0xbbee1a83	-0.007266344
2	0x3b93df9c	0.0045127403
3	0xbcb7369b	-0.022364905
4	0xbb041473	-0.002015379
5	0xbc237a9e	-0.009977965
6	0xbba16889	-0.0049257916
7	0xbc0ca500	-0.008584261
8	0x3bb5fb43	0.0055536344
9	0xbc52a1d8	-0.012855969
10	0x3a2207d6	0.0006180977
11	0xbd0199aa	-0.031640686
12	0xbb8b2dc0	-0.004247397
13	0x3c54003c	0.012939509
14	0x39bd13e5	0.00036063712
15	0x3c0c7acd	0.0085742
16	0xbc12c34d	-0.008957696
17	0xbba2694f	-0.0049564014
18	0xbc7cf78c	-0.015439879
19	0x3b3469f2	0.0027528969
20	0x3cb23cc1	0.021757485
21	0x3c6affc7	0.014343209
22	0x3b8486fd	0.004044412
23	0x3accf64e	0.0015637369
24	0x3be2da55	0.006923
25	0x3cb9ce39	0.022681342
26	0x3c872877	0.016498787
27	0xbc625bc8	-0.013815828
28	0xbb36894c	-0.0027852831
29	0x3c8d9827	0.017284466
30	0xbbe3a5b3	-0.006947243
31	0xbc6ae798	-0.014337443
32	0x3cdd5fd8	0.02702324
33	0x3c07351a	0.0082524065
34	0xbcb13541	-0.021631839
35	0x3c75a19a	0.014992142
36	0x3d07a122	0.033112653
37	0x3c904b4c	0.01761403
38	0xbb37dc13	-0.0028054758
39	0x3c5032e6	0.012707448
40	0xbc790a11	-0.015200154
41	0x3ca413cd	0.020028973
42	0x3b82babe	0.0039895466
43	0x3cd9409f	0.026520072
44	0xbbcc7f16	-0.0062407358
45	0x3d4dfdd1	0.050290886
46	0x3bf80efb	0.007570145
47	0x3c662546	0.014046973
48	0xba6b0011	-0.00089645485
49	0xbc36de5d	-0.011161414
50	0x3d51979c	0.051169977
51	0x3bd90492	0.0066228593
52	0x3c8988d8	0.016788885
53	0x3cd4507b	0.025917282
54	0xbc83d55a	-0.016092945
55	0x3ca74d8b	0.020422718
56	0x3a1ca2c4	0.00059751817
57	0x3d1b8548	0.037968904
58	0x3bfd7e8f	0.007736034
59	0x3d22ff8c	0.03979449
60	0x3c06b8dd	0.008222786
61	0xbc1d1f0b	-0.009589921
62	0x3cbf0f22	0.023322646
63	0x3c151c47	0.00910098
64	0xbbd4a160	-0.006488964
65	0xbc28f6bc	-0.010312732
66	0x3a36dd53	0.0006975729
67	0xbbf3d300	-0.0074409246
68	0x3ca92f69	0.02065249
69	0x3ccea5dc	0.025225572
70	0x3d0cd6a4	0.034384385
71	0xbbd53755	-0.00650684
72	0x3bf804c5	0.007568928
73	0x3afc242c	0.0019236854
74	0x3bfd73db	0.0077347583
75	0xbc853140	-0.016258836
76	0xbc6054fa	-0.013692135
77	0x3c85dcc8	0.016340628
78	0xba584e48	-0.0008251411
79	0xbb077336	-0.0020668036
80	0x3d30718b	0.043077033
81	0xbc1baf89	-0.0095023
82	0xbc033b33	-0.00800972
83	0x3cc177d6	0.023616713
84	0x3d196407	0.03744891
85	0x3cae99f4	0.021313645
86	0xbc714c49	-0.01472766
87	0x3bb6789d	0.0055685774
88	0x3bc8dbfd	0.0061297403
89	0xbb082b5f	-0.0020777804
90	0xbc95c0b7	-0.01828037
91	0xbbfac324	-0.007652657
92	0x3dc488fa	0.09596439
93	0x3c942541	0.01808417
94	0xbc94f66a	-0.018183906
95	0xbca353e2	-0.01993746
96	0xbc9a4da1	-0.018835844
97	0x3d033c2c	0.032039806
98	0xbc93d65f	-0.018046556
99	0x3c9e63d6	0.019334715
100	0xbc70815c	-0.014679279
101	0x3b2fb66c	0.0026811613
102	0x3d0713ed	0.032977987
103	0x399384e2	0.0002813703
104	0xbbe1891d	-0.0068828003
105	0xbbf53d49	-0.0074841124
106	0xbb85cc72	-0.0040832097
107	0xbbad7ddd	-0.005294545
108	0xbcd9fb3b	-0.026609054
109	0xbba826ae	-0.005131564
110	0x3c53570d	0.0128991725
111	0xbc441e97	-0.011970184
112	0x3b6c9bbb	0.0036103565
113	0xbc848be8	-0.016179994
114	0x3b24bc3e	0.0025136615
115	0x3c803c6d	0.015653813
116	0xbc409dbc	-0.011756357
117	0x3d27156a	0.040791906
118	0xb930757f	-0.00016828439
119	0x3b35fe82	0.0027770107
120	0xbc59a1c8	-0.013283201
121	0x3baa3d86	0.0051953224
122	0x3c699db3	0.01425879
123	0xbc244d42	-0.010028185
124	0x3cc6a041	0.024246337
125	0x3cf82242	0.030289773
126	0x3b19ad2c	0.0023449166
127	0x3d1bc95e	0.038033836
128	0x3beb03fd	0.0071721063
129	0x3c5188f8	0.012789004
130	0xba624adf	-0.00086323725
131	0x3b3e1336	0.002900315
132	0x3a80c417	0.0009824064
133	0x3b36aa3f	0.002787247
134	0xbb4a15cb	-0.0030835744
135	0xbcef31f6	-0.029198628
136	0xbcb577cb	-0.022151848
137	0xbbe39698	-0.0069454424
138	0x3b2e0035	0.0026550416
139	0x3b468589	0.0030291995
140	0xbc756717	-0.014978192
141	0x3cc80fe4	0.02442164
142	0x3ca97860	0.020687282
143	0xbbfbb2f1	-0.0076812436
144	0x3b53522a	0.0032245019
145	0xbb2a38c7	-0.0025973783
146	0x3d042bdb	0.032268386
147	0xbbc6de11	-0.006068953
148	0x3c0283eb	0.007966022
149	0xbba89740	-0.0051449835
150	0x3d375b6a	0.044764914
151	0x3d8aa381	0.06769467
152	0xbc0a86d5	-0.008454998
153	0x3beafaf7	0.0071710306
154	0x3b3a493a	0.0028424994
155	0xbbe1df89	-0.0068931025
156	0x3d81a603	0.06330492
157	0x3d0e459d	0.034734357
158	0x3d0b8b69	0.0340685
159	0xbbad00dd	-0.005279644
160	0xbc8d20a8	-0.017227486
161	0x3d0d315b	0.034470897
162	0x3b01d2ec	0.0019809557
163	0xbb15d5f9	-0.0022863133
164	0x3d1f17f8	0.038841218
165	0xbcc88ef4	-0.024482228
166	0x3dc91561	0.09818531
167	0x3c8bea35	0.017079452
168	0xa64994df	-6.993764e-16
169	0x3c7ed7ba	0.015554363
170	0x391c66c3	0.00014915601
171	0xb9f888c8	-0.00047404156
172	0x3169a28a	3.3998355e-09
173	0x3b034934	0.0020032646
174	0x3d89edf8	0.06734842
175	0x3c8dd927	0.01731546
176	0x3cceda14	0.025250472
177	0x3b5ba973	0.0033517748
178	0x3b4ca2c8	0.0031224955
179	0x3d08c96d	0.03339522
180	0xbc471d5e	-0.012152998
181	0x3caef81c	0.021358542
182	0xb782ab0f	-1.5576863e-05
183	0xbc10bf3d	-0.008834657
184	0x3d6e6889	0.05820516
185	0x3ad7c866	0.0016462922
186	0x3d8d0985	0.06886581
187	0x3d807073	0.06271448
188	0xbc8262ae	-0.015916195
189	0x3c7cd0b8	0.015430622
190	0x3b918e46	0.004442009
191	0xbaa98615	-0.0012933636
192	0x3ad07bd8	0.0015906049
193	0xbc717c0b	-0.014739047
194	0xbc643ce1	-0.01393053
195	0xbc3c267a	-0.011483783
196	0xbc13ed09	-0.009028682
197	0x3c4ea015	0.012611409
198	0x3c422024	0.011848483
199	0x3d200199	0.039064024
200	0x3a11f544	0.00055678585
201	0x3c007082	0.007839324
202	0xbcb6c963	-0.022312826
203	0xbc8545af	-0.01626858
204	0x3bdc6a76	0.0067265583
205	0xba94bfce	-0.0011348666
206	0xb96732de	-0.00022048826
207	0xbbfca9fb	-0.007710693
208	0x3c32783b	0.010892923
209	0x3a6bc120	0.00089933164
210	0x3bc6b5a4	0.0060641337
211	0x3a2cf0d0	0.0006597163
212	0xbc606b58	-0.013697468
213	0xbbc08522	-0.0058752457
214	0x3c901990	0.017590314
215	0x3c5ba069	0.013404944
216	0xbaddd53c	-0.0016924511
217	0xbd107084	-0.035263553
218	0x3bb55ecd	0.005534983
219	0x3c954748	0.018222466
220	0x3bb034b0	0.0053773746
221	0xbc0bede5	-0.008540605
222	0xbb7c2753	-0.0038475587
223	0xbc59d92f	-0.0132964095
224	0x3c7de7db	0.015497173
225	0xbc0e8d76	-0.008700719
226	0xbc13e0d1	-0.009025768
227	0x3ba6e9ea	0.0050938027
228	0x3c2393fe	0.009984015
229	0x3c133b12	0.008986251
230	0xbcbb7ac1	-0.022885682
231	0xba5b27ee	-0.0008360137
232	0x3d2e1dd1	0.042508904
233	0xbb7bafdd	-0.0038404383
234	0xbc5c6df9	-0.013453954
235	0x3cf06261	0.029343786
236	0x3c06d816	0.00823023
237	0x3ce8b5f9	0.028407084
238	0x3c1b3caa	0.009474913
239	0x3c7d385f	0.015455334
240	0x3bd80221	0.0065920507
241	0x3bd0c139	0.00637069
242	0x3d122161	0.035676364
243	0xbc5cba53	-0.0134721575
244	0x3c338511	0.0109570185
245	0xbc10e300	-0.0088431835
246	0xba80471d	-0.0009786818
247	0xbb9abbcb	-0.0047220937
248	0x3c4b3328	0.012402333
249	0x3c837632	0.01604757
250	0x3d063ca2	0.032772668
251	0x3d118f5a	0.0355371
252	0x3c31a2d8	0.010842048
253	0x3c029d5e	0.00797209
254	0x3c51d8c6	0.0128080305
255	0x3c7c71cc	0.015407991

conv1.lin_src.weight f4 [384, 64]
0	0xbd508239	-0.05090544
1	0xbd860b5d	-0.06545136
2	0xbdb3845f	-0.08765482
3	0xbdc39442	-0.09549762
4	0x3d3604ec	0.044438288
5	0xbddb567a	-0.107098535
6	0x3cc74a68	0.024327472
7	0xbb22bec3	-0.002483294
8	0x3d13a0a4	0.03604187
9	0x3d863e86	0.06554894
10	0xbdefbdae	-0.117061004
11	0xbba056c9	-0.004893158
12	0xbda1f684	-0.07908347
13	0xbe08fed3	-0.13378458
14	0x3dd179d5	0.10228316
15	0x3dbcf779	0.09226889
16	0xbdf05feb	-0.11737045
17	0xbd9cc5a5	-0.07654885
18	0xbb647ba4	-0.0034863735
19	0xbdfad8d1	-0.12248386
20	0x3caeebf0	0.021352738
21	0x3da0e596	0.0785629
22	0xbdec4892	-0.11537279
23	0xbd9cd628	-0.076580346
24	0xbd4a597d	-0.04940175
25	0xbd860ff0	-0.065460086
26	0xbdc0c155	-0.09411875
27	0xbdd3a2cd	-0.10333786
28	0x3d3c5b1f	0.045985337
29	0x3e1bf3c7	0.15229712
30	0x3ca2ef71	0.019889565
31	0x3dbaa857	0.091141395
32	0xbdb92c27	-0.090416245
33	0x3d67c1b5	0.056581218
34	0x3d954a11	0.07289518
35	0x3d198d92	0.037488528
36	0xbc972164	-0.01844854
37	0xbc4ccca1	-0.012499959
38	0xbbb44b6b	-0.0055021546
39	0x3dddda12	0.10832609
40	0xbd62f127	-0.055405762
41	0xbc589476	-0.01321899
42	0x3dab430c	0.083623976
43	0xbd8827e8	-0.066482365
44	0xbdb9522b	-0.090488754
45	0x3dab884d	0.08375607
46	0xbd59b18a	-0.05314783
47	0xbdabc0e2	-0.08386399
48	0xbd5cd551	-0.053914372
49	0x3d0c8054	0.03430207
50	0x3d15194e	0.036401086
51	0xbd230e11	-0.039808337
52	0x3d84a596	0.064768955
53	0xbcbfef8b	-0.023429653
54	0x3c581b86	0.013190156
55	0x3da63ae5	0.08116702
56	0x3ccc1217	0.02491097
57	0xbd922c2a	-0.0713733
58	0xbd2756fc	-0.04085444
59	0xbd70e7d9	-0.058814857
60	0x3c2986ca	0.010347078
61	0x3d8b895a	0.06813307
62	0x3c362a52	0.011118488
63	0xbc919bd4	-0.0177745
64	0x3ba18be3	0.004930006
65	0xbda38f6f	-0.07986342
66	0x3d1b045a	0.037845947
67	0x3a5fbca0	0.0008534882
68	0xbadc12ea	-0.0016790305
69	0x3dd3801b	0.103271686
70	0xbda02f15	-0.0782148
71	0x3d2c7853	0.042106938
72	0x3da4361e	0.080181345
73	0xbdd265b9	-0.10273308
74	0xbbb776ec	-0.0055988934
75	0xbc7abe5a	-0.015304172
76	0xbc7a962f	-0.015294596
77	0x3dcf4bd3	0.10121884
78	0xbd574094	-0.05255182
79	0xbd25ed4d	-0.04050951
80	0xbc9571a8	-0.018242672
81	0xbd519b4a	-0.051173486
82	0xbcef82bd	-0.029237146
83	0x3a64c6d6	0.00087271386
84	0xbde89d9c	-0.113581866
85	0xbd6308c8	-0.055428296
86	0xbd97ae7d	-0.07406328
87	0xbd90323b	-0.07040831
88	0xbda046c7	-0.07826
89	0xbb59a081	-0.003320724
90	0x3dc00ce7	0.09377461
91	0x3cdbccd5	0.02683107
92	0x3d89fa9c	0.06737253
93	0xbcb0b82a	-0.021572191
94	0x3dbce3d6	0.09223144
95	0x3ca51228	0.02015026
96	0xbc24c660	-0.010057062
97	0xbd39152a	-0.0451862
98	0x3b3f36d5	0.002917697
99	0x3dce5b48	0.10076004
100	0x3d9101df	0.07080435
101	0x3ba45641	0.005015165
102	0xbd13de1f	-0.036100503
103	0xbd069ea3	-0.03286613
104	0xbce756eb	-0.028239688
105	0x3de3995d	0.11113236
106	0x3d7bf0ea	0.06150905
107	0xbd8fb94b	-0.07017764
108	0x3d37980e	0.044822745
109	0x3d0c2b24	0.03422083
110	0x3d2df268	0.042467505
111	0x3d864fb3	0.0655817
112	0x3c619e89	0.013770708
113	0x3d90f909	0.0707875
114	0x3d01c4ce	0.03168183
115	0xbdbd9e6d	-0.09258733
116	0x3d8ff123	0.07028415
117	0xbdbdae95	-0.092618145
118	0xbd31c628	-0.043401867
119	0xbdec30d2	-0.11532749
120	0x3d929f08	0.07159239
121	0xbd241bc4	-0.040065542
122	0xbd61669b	-0.055029493
123	0x3d3cf8b3	0.046135616
124	0xbda06e6e	-0.07833563
125	0x3cd907e8	0.026493028
126	0x3dc27188	0.094943106
127	0xbc8eca55	-0.017430464
128	0x3d49398b	0.049127143
129	0xbd64f3f0	-0.0558967
130	0x3e17c3e2	0.14820817
131	0xbd6d85e4	-0.057989016
132	0xbc8c0068	-0.017090037
133	0xbc744e82	-0.014911296
134	0xbe19daad	-0.15024824
135	0x3dea3e18	0.11437625
136	0xbbee7009	-0.007276539
137	0xbdc50bb8	-0.09621376
138	0xbdc849e0	-0.097797155
139	0x3db0b6f8	0.086286485
140	0xbdd59790	-0.10429299
141	0xbd26f25d	-0.04075848
142	0x3dbdb299	0.092625804
143	0xbd0f72f3	-0.035021733
144	0xbdcc3eff	-0.09972953
145	0x3e0f540c	0.13996905
146	0x3d527482	0.05138064
147	0xbe0155ae	-0.1263034
148	0xbdc801b3	-0.09765949
149	0xbc964fca	-0.018348593
150	0xbdcc6df5	-0.0998191
151	0xbe38cf8e	-0.18047926
152	0xbc276e5c	-0.010219183
153	0xbc77847c	-0.01510727
154	0xbda0e8ca	-0.07856901
155	0xbc8a4530	-0.016878694
156	0x3d972470	0.07379997
157	0xbe10087f	-0.14065741
158	0xbd246385	-0.04013397
159	0xbd9a091e	-0.0752127
160	0x3dbdd2ff	0.0926876
161	0xbd680b78	-0.056651562
162	0xbddcf540	-0.10788965
163	0xbe389524	-0.18025643
164	0x3d29728f	0.041369017
165	0xbe0e9080	-0.1392231
166	0x3dd48d29	0.10378487
167	0xbd2fefa0	-0.042953134
168	0x3d460c0e	0.04835134
169	0xbcfbfa80	-0.030759096
170	0xbcae4324	-0.02127225
171	0xbd4f4b1f	-0.05060875
172	0xbd8bd768	-0.06828195
173	0xbd274306	-0.040835403
174	0x3af54bdd	0.0018714626
175	0xbd0f5822	-0.03499616
176	0x3cc8468c	0.024447702
177	0x3d8a5f89	0.06756503
178	0x3c769a01	0.015051366
179	0xbdc99b41	-0.098440655
180	0xbcf3a5ff	-0.029742239
181	0xbd848879	-0.064713426
182	0xbe0a3802	-0.13497928
183	0x3cd63f50	0.026153237
184	0xbd9539dc	-0.072864264
185	0x3d5220e9	0.051300917
186	0xbd970c09	-0.073753424
187	0x3e22cd8b	0.15898721
188	0xbd6847ec	-0.056709215
189	0x3d9b1131	0.075716384
190	0x3df137fe	0.11778258
191	0xbccce0d2	-0.025009546
192	0x3d5af30b	0.05345444
193	0xbd150ccb	-0.036389153
194	0xbd83df34	-0.06439057
195	0xbde35205	-0.11099628
196	0x3df21ffb	0.11822506
197	0x3d54d845	0.051964063
198	0x3ceda55b	0.029009512
199	0x3d518e3c	0.051161036
200	0xbd3cff4b	-0.046141904
201	0x3ceded3f	0.029043792
202	0x3cf44945	0.029820094
203	0x3dcb2567	0.09919243
204	0x3ce16aac	0.027516685
205	0x3da1daf5	0.07903091
206	0x3db7a353	0.089666985
207	0xbd48ef67	-0.049056437
208	0xbdd6d9f7	-0.10490792
209	0x3d4b651c	0.049656972
210	0x3d942efa	0.072355226
211	0xbcaa98da	-0.020824838
212	0xbd9e2905	-0.077226676
213	0xbd360e7f	-0.04444742
214	0x3d8c39fd	0.06846998
215	0xbd1a779f	-0.037711736
216	0x3d9e93f2	0.07743062
217	0xbd984bb8	-0.07436317
218	0x3c85f7c7	0.016353501
219	0x3d04dc49	0.032436643
220	0xbd6e258e	-0.058141284
221	0xbd91d0cd	-0.07119904
222	0x3daad727	0.08341818
223	0x3d1729cc	0.036905095
224	0xbd1981cb	-0.037477296
225	0x3d1d9a4c	0.038477227
226	0x3cddbece	0.027068522
227	0x3de5fcb9	0.11229844
228	0xbce12917	-0.027485413
229	0x3d93bc6c	0.07213673
230	0xbde10bd2	-0.10988583
231	0x3c4cecbe	0.012507616
232	0x3bc5e27f	0.0060389633
233	0x3c9142a0	0.017731965
234	0xbdca44e3	-0.0987642
235	0xbdbce459	-0.09223241
236	0xbc7a832c	-0.015290063
237	0x3b48ce24	0.0030640448
238	0xbcb1c25d	-0.021699125
239	0x3d99728a	0.0749255
240	0xbdd1edb1	-0.10250414
241	0x3dadd0e5	0.08487109
242	0xbdd61a2a	-0.10454209
243	0x3dd316fe	0.1030712
244	0x3da74c52	0.08168854
245	0xbdaef0d3	-0.08542027
246	0x3d9518d8	0.07280129
247	0x3daaf42c	0.08347353
248	0xbcdf7ce4	-0.027281232
249	0x3dafe62b	0.08588823
250	0xbb315fc8	-0.0027065147
251	0x3d9d7091	0.07687486
252	0x3d68c8af	0.05683201
253	0x3d8bbff7	0.06823724
254	0x3d8f0b96	0.06984632
255	0x3c9a6eac	0.0188516

conv1.lin_dst.weight f4 [384, 64]
0	0xbd508239	-0.05090544
1	0xbd860b5d	-0.06545136
2	0xbdb3845f	-0.08765482
3	0xbdc39442	-0.09549762
4	0x3d3604ec	0.044438288
5	0xbddb567a	-0.107098535
6	0x3cc74a68	0.024327472
7	0xbb22bec3	-0.002483294
8	0x3d13a0a4	0.03604187
9	0x3d863e86	0.06554894
10	0xbdefbdae	-0.117061004
11	0xbba056c9	-0.004893158
12	0xbda1f684	-0.07908347
13	0xbe08fed3	-0.13378458
14	0x3dd179d5	0.10228316
15	0x3dbcf779	0.09226889
16	0xbdf05feb	-0.11737045
17	0xbd9cc5a5	-0.07654885
18	0xbb647ba4	-0.0034863735
19	0xbdfad8d1	-0.12248386
20	0x3caeebf0	0.021352738
21	0x3da0e596	0.0785629
22	0xbdec4892	-0.11537279
23	0xbd9cd628	-0.076580346
24	0xbd4a597d	-0.04940175
25	0xbd860ff0	-0.065460086
26	0xbdc0c155	-0.09411875
27	0xbdd3a2cd	-0.10333786
28	0x3d3c5b1f	0.045985337
29	0x3e1bf3c7	0.15229712
30	0x3ca2ef71	0.019889565
31	0x3dbaa857	0.091141395
32	0xbdb92c27	-0.090416245
33	0x3d67c1b5	0.056581218
34	0x3d954a11	0.07289518
35	0x3d198d92	0.037488528
36	0xbc972164	-0.01844854
37	0xbc4ccca1	-0.012499959
38	0xbbb44b6b	-0.0055021546
39	0x3dddda12	0.10832609
40	0xbd62f127	-0.055405762
41	0xbc589476	-0.01321899
42	0x3dab430c	0.083623976
43	0xbd8827e8	-0.066482365
44	0xbdb9522b	-0.090488754
45	0x3dab884d	0.08375607
46	0xbd59b18a	-0.05314783
47	0xbdabc0e2	-0.08386399
48	0xbd5cd551	-0.053914372
49	0x3d0c8054	0.03430207
50	0x3d15194e	0.036401086
51	0xbd230e11	-0.039808337
52	0x3d84a596	0.064768955
53	0xbcbfef8b	-0.023429653
54	0x3c581b86	0.013190156
55	0x3da63ae5	0.08116702
56	0x3ccc1217	0.02491097
57	0xbd922c2a	-0.0713733
58	0xbd2756fc	-0.04085444
59	0xbd70e7d9	-0.058814857
60	0x3c2986ca	0.010347078
61	0x3d8b895a	0.06813307
62	0x3c362a52	0.011118488
63	0xbc919bd4	-0.0177745
64	0x3ba18be3	0.004930006
65	0xbda38f6f	-0.07986342
66	0x3d1b045a	0.037845947
67	0x3a5fbca0	0.0008534882
68	0xbadc12ea	-0.0016790305
69	0x3dd3801b	0.103271686
70	0xbda02f15	-0.0782148
71	0x3d2c7853	0.042106938
72	0x3da4361e	0.080181345
73	0xbdd265b9	-0.10273308
74	0xbbb776ec	-0.0055988934
75	0xbc7abe5a	-0.015304172
76	0xbc7a962f	-0.015294596
77	0x3dcf4bd3	0.10121884
78	0xbd574094	-0.05255182
79	0xbd25ed4d	-0.04050951
80	0xbc9571a8	-0.018242672
81	0xbd519b4a	-0.051173486
82	0xbcef82bd	-0.029237146
83	0x3a64c6d6	0.00087271386
84	0xbde89d9c	-0.113581866
85	0xbd6308c8	-0.055428296
86	0xbd97ae7d	-0.07406328
87	0xbd90323b	-0.07040831
88	0xbda046c7	-0.07826
89	0xbb59a081	-0.003320724
90	0x3dc00ce7	0.09377461
91	0x3cdbccd5	0.02683107
92	0x3d89fa9c	0.06737253
93	0xbcb0b82a	-0.021572191
94	0x3dbce3d6	0.09223144
95	0x3ca51228	0.02015026
96	0xbc24c660	-0.010057062
97	0xbd39152a	-0.0451862
98	0x3b3f36d5	0.002917697
99	0x3dce5b48	0.10076004
100	0x3d9101df	0.07080435
101	0x3ba45641	0.005015165
102	0xbd13de1f	-0.036100503
103	0xbd069ea3	-0.03286613
104	0xbce756eb	-0.028239688
105	0x3de3995d	0.11113236
106	0x3d7bf0ea	0.06150905
107	0xbd8fb94b	-0.07017764
108	0x3d37980e	0.044822745
109	0x3d0c2b24	0.03422083
110	0x3d2df268	0.042467505
111	0x3d864fb3	0.0655817
112	0x3c619e89	0.013770708
113	0x3d90f909	0.0707875
114	0x3d01c4ce	0.03168183
115	0xbdbd9e6d	-0.09258733
116	0x3d8ff123	0.07028415
117	0xbdbdae95	-0.092618145
118	0xbd31c628	-0.043401867
119	0xbdec30d2	-0.11532749
120	0x3d929f08	0.07159239
121	0xbd241bc4	-0.040065542
122	0xbd61669b	-0.055029493
123	0x3d3cf8b3	0.046135616
124	0xbda06e6e	-0.07833563
125	0x3cd907e8	0.026493028
126	0x3dc27188	0.094943106
127	0xbc8eca55	-0.017430464
128	0x3d49398b	0.049127143
129	0xbd64f3f0	-0.0558967
130	0x3e17c3e2	0.14820817
131	0xbd6d85e4	-0.057989016
132	0xbc8c0068	-0.017090037
133	0xbc744e82	-0.014911296
134	0xbe19daad	-0.15024824
135	0x3dea3e18	0.11437625
136	0xbbee7009	-0.007276539
137	0xbdc50bb8	-0.09621376
138	0xbdc849e0	-0.097797155
139	0x3db0b6f8	0.086286485
140	0xbdd59790	-0.10429299
141	0xbd26f25d	-0.04075848
142	0x3dbdb299	0.092625804
143	0xbd0f72f3	-0.035021733
144	0xbdcc3eff	-0.09972953
145	0x3e0f540c	0.13996905
146	0x3d527482	0.05138064
147	0xbe0155ae	-0.1263034
148	0xbdc801b3	-0.09765949
149	0xbc964fca	-0.018348593
150	0xbdcc6df5	-0.0998191
151	0xbe38cf8e	-0.18047926
152	0xbc276e5c	-0.010219183
153	0xbc77847c	-0.01510727
154	0xbda0e8ca	-0.07856901
155	0xbc8a4530	-0.016878694
156	0x3d972470	0.07379997
157	0xbe10087f	-0.14065741
158	0xbd246385	-0.04013397
159	0xbd9a091e	-0.0752127
160	0x3dbdd2ff	0.0926876
161	0xbd680b78	-0.056651562
162	0xbddcf540	-0.10788965
163	0xbe389524	-0.18025643
164	0x3d29728f	0.041369017
165	0xbe0e9080	-0.1392231
166	0x3dd48d29	0.10378487
167	0xbd2fefa0	-0.042953134
168	0x3d460c0e	0.04835134
169	0xbcfbfa80	-0.030759096
170	0xbcae4324	-0.02127225
171	0xbd4f4b1f	-0.05060875
172	0xbd8bd768	-0.06828195
173	0xbd274306	-0.040835403
174	0x3af54bdd	0.0018714626
175	0xbd0f5822	-0.03499616
176	0x3cc8468c	0.024447702
177	0x3d8a5f89	0.06756503
178	0x3c769a01	0.015051366
179	0xbdc99b41	-0.098440655
180	0xbcf3a5ff	-0.029742239
181	0xbd848879	-0.064713426
182	0xbe0a3802	-0.13497928
183	0x3cd63f50	0.026153237
184	0xbd9539dc	-0.072864264
185	0x3d5220e9	0.051300917
186	0xbd970c09	-0.073753424
187	0x3e22cd8b	0.15898721
188	0xbd6847ec	-0.056709215
189	0x3d9b1131	0.075716384
190	0x3df137fe	0.11778258
191	0xbccce0d2	-0.025009546
192	0x3d5af30b	0.05345444
193	0xbd150ccb	-0.036389153
194	0xbd83df34	-0.06439057
195	0xbde35205	-0.11099628
196	0x3df21ffb	0.11822506
197	0x3d54d845	0.051964063
198	0x3ceda55b	0.029009512
199	0x3d518e3c	0.051161036
200	0xbd3cff4b	-0.046141904
201	0x3ceded3f	0.029043792
202	0x3cf44945	0.029820094
203	0x3dcb2567	0.09919243
204	0x3ce16aac	0.027516685
205	0x3da1daf5	0.07903091
206	0x3db7a353	0.089666985
207	0xbd48ef67	-0.049056437
208	0xbdd6d9f7	-0.10490792
209	0x3d4b651c	0.049656972
210	0x3d942efa	0.072355226
211	0xbcaa98da	-0.020824838
212	0xbd9e2905	-0.077226676
213	0xbd360e7f	-0.04444742
214	0x3d8c39fd	0.06846998
215	0xbd1a779f	-0.037711736
216	0x3d9e93f2	0.07743062
217	0xbd984bb8	-0.07436317
218	0x3c85f7c7	0.016353501
219	0x3d04dc49	0.032436643
220	0xbd6e258e	-0.058141284
221	0xbd91d0cd	-0.07119904
222	0x3daad727	0.08341818
223	0x3d1729cc	0.036905095
224	0xbd1981cb	-0.037477296
225	0x3d1d9a4c	0.038477227
226	0x3cddbece	0.027068522
227	0x3de5fcb9	0.11229844
228	0xbce12917	-0.027485413
229	0x3d93bc6c	0.07213673
230	0xbde10bd2	-0.10988583
231	0x3c4cecbe	0.012507616
232	0x3bc5e27f	0.0060389633
233	0x3c9142a0	0.017731965
234	0xbdca44e3	-0.0987642
235	0xbdbce459	-0.09223241
236	0xbc7a832c	-0.015290063
237	0x3b48ce24	0.0030640448
238	0xbcb1c25d	-0.021699125
239	0x3d99728a	0.0749255
240	0xbdd1edb1	-0.10250414
241	0x3dadd0e5	0.08487109
242	0xbdd61a2a	-0.10454209
243	0x3dd316fe	0.1030712
244	0x3da74c52	0.08168854
245	0xbdaef0d3	-0.08542027
246	0x3d9518d8	0.07280129
247	0x3daaf42c	0.08347353
248	0xbcdf7ce4	-0.027281232
249	0x3dafe62b	0.08588823
250	0xbb315fc8	-0.0027065147
251	0x3d9d7091	0.07687486
252	0x3d68c8af	0.05683201
253	0x3d8bbff7	0.06823724
254	0x3d8f0b96	0.06984632
255	0x3c9a6eac	0.0188516
